data.pth (torch, 5335 bytes, 6 tensors)

l1.weight f4 [8, 61]
-0.25935495 -0.21206579 -0.4922834 -0.2233191 0.4587789 0.19136384 -0.16734876 0.9119794
-0.04075681 -0.38393956 -0.55870277 -0.3848 0.28083146 0.6011854 -0.19109057 0.61915797
-0.0010267358 -0.14970872 0.42324868 0.37120816 0.78627145 0.5048707 0.42689574 0.07684237
0.7531175 0.52301383 0.9572166 0.18705153 -0.15108512 0.42667368 0.27527925 -0.17571855
0.09838806 -0.15801853 0.5441398 0.5676557 0.030219655 -0.27845073 -0.19137591 0.60722244
-0.0150909545 0.059321854 -0.59475315 -0.2567949 -0.39877906 -0.15793298 0.044537187 0.50208455
0.5289837 0.4159054 -0.23814534 0.0014474458 -0.24188203 -0.73906374 -0.4672244 0.31555948
0.571919 0.53265476 0.48368388 -0.3113611 0.14118844 0.45543078 -0.08065265 -0.12030001
0.64182866 0.26325643 -0.010876421 0.5752161 0.7852045 0.1627444 0.07690054 -0.44661576
0.0139478 0.15350182 -0.28737023 -0.3181719 -0.15213516 0.34357923 -0.120156094 -0.2805272
0.16396691 0.9219289 -0.11621252 0.22623222 0.4320102 0.20636602 0.31293613 0.20040639
0.39113474 0.5313675 0.23159443 -0.060218845 -0.3602799 -0.13154157 -0.28777942 0.58570284
-0.1964629 0.2846954 -0.2515643 0.014724812 0.06341198 0.49430326 -0.10982032 -0.34976158
-0.39949152 -0.31181768 0.5298553 0.59191763 0.6746136 -0.24942526 -0.2880397 -0.32077354
-0.3407594 -0.35093847 0.4017471 0.07489692 -0.10897698 -0.058762368 -0.266178 -0.10287714
-0.29475918 0.2699518 -0.33463356 0.4707504 0.33168328 -0.29722053 -0.16646251 0.036233597
-0.15186563 -0.47047433 -0.09909828 0.1643652 0.5157596 0.18131046 -0.26430082 0.5332976
0.66133374 0.5899057 -0.32436427 0.45539096 0.28363514 -0.20629108 -0.4705373 0.23721503
-0.47060782 -0.24330308 -0.4314813 -0.39714813 0.24817917 0.371677 -0.14477602 -0.33318946
0.51008606 0.6201313 0.31851563 0.3567678 -0.34454536 0.4600742 -0.17765656 0.30710262
0.58530664 0.13628893 0.04485231 0.3329897 0.6019641 0.43774742 0.54940623 -0.16733304
-0.18505833 -0.3386436 0.28647965 0.35190222 0.40362078 0.59572333 0.6034383 -0.46323517
0.034735974 0.21746165 0.5629878 0.30701715 0.28346017 0.3947849 0.21255633 0.7882735
0.29579267 -0.55408424 -0.3494329 0.4487943 0.12001785 -0.43111077 -0.39943072 -0.30333444
-0.4562004 -0.60364276 -0.36762327 0.3339615 -0.2731083 -0.01175193 -0.28055432 -0.32200542
0.020943621 0.092701755 0.47651386 -0.46380055 0.56867963 0.5632454 0.5658068 0.72434515
0.48291844 0.46194142 -0.53380597 -0.04797717 0.4002909 0.71025145 0.14415316 0.3781169
0.0809075 -0.2501182 -0.3612142 0.47743595 -0.6310628 0.06157896 -0.26041052 0.030780137
0.5695494 -0.6445077 -0.081735045 0.02137066 -0.007650934 -0.42282566 -0.079295255 0.8555721
-0.2730634 0.2003259 -0.37820882 0.3059044 1.1497935 0.5986889 0.42498004 0.9284383
-0.0035549272 0.7164322 0.030322539 0.38353696 -0.4762673 0.236013 0.5113561 0.6019934
0.36039087 0.43353552 0.6524054 0.13388589 0.43170938 0.2619466 0.33411628 0.28223902
00000000: 2cca 84be c627 59be 920c fcbe c3ad 64be
00000010: 11e5 ea3e e2f4 433e 795d 2bbe 7b77 693f
00000020: 9df0 26bd ba93 c4be 2507 0fbf 8104 c5be
00000030: 24c9 8f3e 49e7 193f 3fad 43be 2381 1e3f
00000040: 8993 86ba 3e4d 19be 0db4 d83e ff0e be3e
00000050: 1649 493f 353f 013f 1492 da3e 885f 9d3d
00000060: 4fcc 403f 3ce4 053f 260c 753f 708a 3f3e
00000070: 0fb6 1abe f974 da3e 67f1 8c3e 90ef 33be
00000080: ae7f c93d 9ccf 21be bf4c 0b3f e251 113f
00000090: 368f f73c 1891 8ebe 0cf8 43be ee72 1b3f
000000a0: 0d40 77bc 79fb 723d be41 18bf 9f7a 83be
000000b0: c52c ccbe 2fb9 21be a06c 363d 9d88 003f
000000c0: 7a6b 073f 8df1 d43e 5fdc 73be 39b8 bd3a
000000d0: ecaf 77be 4833 3dbf 0938 efbe 0391 a13e
000000e0: 4969 123f 105c 083f 6aa5 f73e b96a 9fbe
000000f0: b493 103e 392e e93e 372d a5bd da5f f6bd
00000100: e24e 243f 8cc9 863e 0433 32bc 5d41 133f
00000110: 2a03 493f 78a6 263e 087e 9d3d d2aa e4be
00000120: 5085 643c 952f 1d3e 3122 93be 6de7 a2be
00000130: 52c9 1bbe 9ee9 af3e 6614 f6bd 43a1 8fbe
00000140: f1e6 273e 8803 6c3f d400 eebd 6ba9 673e
00000150: 7130 dd3e 9d51 533e 2a39 a03e 5537 4d3e
00000160: d042 c83e b307 083f 1727 6d3e 09a8 76bd
00000170: 9b76 b8be d5b2 06be d357 93be 9ff0 153f
00000180: 922d 49be 98c3 913e 09cd 80be 5640 713c
00000190: 24de 813d 5115 fd3e 7ae9 e0bd f313 b3be
000001a0: 278a ccbe 91a6 9fbe 99a4 073f ea87 173f
000001b0: 7ab3 2c3f 5669 7fbe f179 93be 6e3c a4be
000001c0: 0478 aebe 35ae b3be ccb1 cd3e 8e63 993d
000001d0: 532f dfbd cfb0 70bd 7c48 88be 40b1 d2bd
000001e0: adea 96be 1f37 8a3e 1755 abbe 3206 f13e
000001f0: 64d2 a93e 4a2d 98be 2675 2abe ae69 143d
00000200: aa82 1bbe 03e2 f0be 0af4 cabd 5a4f 283e
00000210: d208 043f 73a9 393e 7052 87be 3186 083f
00000220: 2b4d 293f 0f04 173f 1313 a6be 0129 e93e
00000230: a038 913e f83d 53be 44ea f0be 7fe8 723e
00000240: 82f3 f0be 7124 79be 1eeb dcbe 0057 cbbe
00000250: ae22 7e3e 734c be3e 2a40 14be cf97 aabe
00000260: 0095 023f edc0 1e3f 7b14 a33e 45aa b63e
00000270: 4068 b0be d88e eb3e 9aeb 35be 8e3c 9d3e
00000280: a8d6 153f 538f 0b3e 0eb7 373d a07d aa3e
00000290: 521a 1a3f 6e20 e03e e3a5 0c3f 5a59 2bbe
000002a0: ee7f 3dbe b262 adbe 76ad 923e 872c b43e
000002b0: 62a7 ce3e 5381 183f ef7a 1a3f 292d edbe
000002c0: 4f47 0e3d 44ae 5e3e f81f 103f 5a31 9d3e
000002d0: b121 913e 3f21 ca3e 5ea8 593e 4bcc 493f
000002e0: 2372 973e 77d8 0dbf dee8 b2be 5ec8 e53e
000002f0: ebcb f53d 8dba dcbe 2f82 ccbe a74e 9bbe
00000300: 1993 e9be 5588 1abf 1e39 bcbe 00fd aa3e
00000310: dad4 8bbe 2b8b 40bc d1a4 8fbe e5dd a4be
00000320: f591 ab3c 6bda bd3d a0f9 f33e 4477 edbe
00000330: fd94 113f da30 103f b7d8 103f af6e 393f
00000340: 1641 f73e 9683 ec3e 82a7 08bf b683 44bd
00000350: eef2 cc3e 0ad3 353f e39c 133e 8a98 c13e
00000360: d5b2 a53d 7e0f 80be 11f1 b8be 7c72 f43e
00000370: 558d 21bf 383a 7c3d 8754 85be a026 fc3c
00000380: fdcd 113f 75fe 24bf b464 a7bd 8611 af3c
00000390: b0b4 fabb 9b7c d8be 8d65 a2bd c606 5b3f
000003a0: f7ce 8bbe 3c22 4d3e 96a4 c1be 809f 9c3e
000003b0: 6f2c 933f ad43 193f fc96 d93e 22ae 6d3f
000003c0: c8f9 68bb 1a68 373f f966 f83c f55e c43e
000003d0: 4fd9 f3be 64ad 713e 3ce8 023f 3d1c 1a3f
000003e0: 2785 b83e 5ef8 dd3e 0a04 273f 6219 093e
000003f0: 0309 dd3e dd1d 863e 4a11 ab3e a281 903e

l1.bias f4 [8]
0.82069296 0.7770608 0.47054967 0.8312448 0.8446268 0.73301244 -0.15314715 0.7936007
00000000: ef18 523f 75ed 463f e3eb f03e 76cc 543f
00000010: 7639 583f b4a6 3b3f 9bd2 1cbe 6a29 4b3f

l2.weight f4 [8, 8]
-0.11859764 -0.3223333 -0.37513506 0.06301862 -0.4015886 0.21065336 0.23307636 -0.35233143
-0.052952677 -0.14699034 -0.06317158 0.11584577 -0.25822127 -0.40012664 0.25199834 0.08700244
0.19119112 0.5762794 0.4515143 -1.1930265 0.97776294 -0.3570482 -0.14432636 0.838837
-0.31384134 -0.7221756 1.1635433 -0.21326989 0.9931831 0.8277638 -0.03664691 0.012053825
0.33923566 0.71859163 -0.794037 0.68237084 0.55262846 0.7210565 0.13666898 -1.4057847
0.7220372 -0.38686207 0.71106356 0.6475096 -0.03179723 1.3543359 -0.2759182 -0.73463666
0.63809824 0.9135013 -0.6113338 1.2243426 -0.9947857 0.41209492 -0.3303567 1.4738214
1.552758 0.8938696 -1.0468085 -0.4122438 1.0593605 0.37717953 0.20041218 -0.44404095
00000000: 52e3 f2bd df08 a5be b411 c0be e80f 813d
00000010: 059d cdbe 84b5 573e 92ab 6e3e c964 b4be
00000020: e8e4 58bd a384 16be 1a60 81bd 8c40 ed3d
00000030: 9435 84be 66dd ccbe ed05 813e 562e b23d
00000040: 9bc7 433e 0c87 133f e22c e73e 18b5 98bf
00000050: ac4e 7a3f 06cf b6be 4aca 13be 06be 563f
00000060: d0af a0be 80e0 38bf fdee 943f 6c63 5abe
00000070: 3f41 7e3f 54e8 533f 121b 16bd 687d 453c
00000080: 4cb0 ad3e 9ff5 373f 0246 4bbf dbaf 2e3f
00000090: 0f79 0d3f 2997 383f f4f2 0b3e c1f0 b3bf
000000a0: 6ed7 383f c912 c6be 4308 363f 30c3 253f
000000b0: d03d 02bd e15a ad3f 2645 8dbe 2611 3cbf
000000c0: 685a 233f 39db 693f 5f80 1cbf 42b7 9c3f
000000d0: 47aa 7ebf 1bfe d23e 8324 a9be 2ea6 bc3f
000000e0: c6c0 c63f a3d4 643f d2fd 85bf 9f11 d3be
000000f0: 2099 873f ad1d c13e da38 4d3e 5659 e3be

l2.bias f4 [8]
-0.047813687 -0.2541153 0.09958616 0.59940034 0.23227169 0.16077386 0.41748407 0.39287603
00000000: 49d8 43bd 671b 82be d4f3 cb3d 4d72 193f
00000010: a1d8 6d3e e7a1 243e 79c0 d53e 0c27 c93e

l3.weight f4 [8, 8]
0.30670977 -0.115249954 0.5456758 -0.8593222 0.424649 -1.286328 -1.5180918 0.47833857
-0.37658665 0.26395047 -0.52602017 0.48076907 -1.3929224 0.24463278 -1.0855811 0.25427938
-0.28160158 0.21116884 -1.512928 0.5254911 -0.056799393 0.8716428 -1.3093909 -1.0119088
0.105728865 0.2857835 0.24436103 -1.3028095 -0.6629755 -0.7901732 0.2446374 0.48020977
-0.27176568 0.28341642 -1.3801068 -0.48366958 0.81001437 0.43642 -0.5098274 0.3266552
0.08561186 0.10932828 -1.0251087 -0.4563646 -0.8891079 0.66217357 0.23168145 -0.65860903
0.10566534 0.003338194 0.5357715 0.6423561 -1.1423557 -1.0585893 -1.1078783 -1.043156
0.21135889 -0.29067576 -1.5319719 -0.9723472 -1.5793813 -1.517199 1.066747 -0.696015
00000000: 1009 9d3e 2b08 ecbd 69b1 0b3f 8afc 5bbf
00000010: 986b d93e 65a6 a4bf d550 c2bf cbe8 f43e
00000020: f7cf c0be 8424 873e 42a9 06bf 5d27 f63e
00000030: 484b b2bf 0481 7a3e 52f4 8abf e830 823e
00000040: 152e 90be a53c 583e a0a7 c1bf 9686 063f
00000050: 7ba6 68bd fc23 5f3f 1f9a a7bf 3a86 81bf
00000060: 6088 d83d 3752 923e c739 7a3e 76c2 a6bf
00000070: c3b8 29bf ca48 4abf 3a82 7a3e 0ede f53e
00000080: df24 8bbe f51b 913e 57a7 b0bf 8aa3 f7be
00000090: 1a5d 4f3f 7172 df3e 0c84 02bf 5a3f a73e
000000a0: 4555 af3d 81e7 df3d c336 83bf 9fa8 e9be
000000b0: 939c 63bf 3584 293f e73d 6d3e 9a9a 28bf
000000c0: 1267 d83d 9ac5 5a3b 5228 093f 7371 243f
000000d0: b638 92bf db7f 87bf f5ce 8dbf 2386 85bf
000000e0: 776e 583e 74d3 94be a817 c4bf bfeb 78bf
000000f0: 2b29 cabf 9433 c2bf 2a8b 883f 0a2e 32bf

l3.bias f4 [8]
-0.34821036 -0.5581068 -0.33558056 -0.09352598 -0.1733803 -0.2823049 0.78132063 0.4396521
00000000: a148 b2be 16e0 0ebf 37d1 abbe 8d8a bfbd
00000010: 9b8a 31be 458a 90be a104 483f 141a e13e
